kf_-1_tc_3_ep_150_sL_2_eD_7_lr_0.001_T_8000_t_2000.pth (torch, 52695 bytes, 18 tensors)

encoder.rnn1.weight_ih_l0 f4 [56, 128]
0	0xbf23b1c9	-0.63943154
1	0xbe33a477	-0.17543207
2	0x3c7682e4	0.015045855
3	0xbf0b90a0	-0.54517555
4	0x3ecf7494	0.4051863
5	0x3f077b93	0.52922934
6	0x3ed9208e	0.4240765
7	0x3f05b875	0.52234584
8	0x3f1d5625	0.6145957
9	0xbcb77787	-0.022395862
10	0x3ea50d94	0.32236922
11	0x3ea54680	0.3228035
12	0x3d4ce55b	0.050023418
13	0x3e59296a	0.21207204
14	0x3fe9fbb6	1.8279941
15	0x3efc72bf	0.49306294
16	0x3f5673af	0.8377027
17	0x3f3bbfa9	0.73339325
18	0x3e096c1c	0.13420147
19	0x3f59da8b	0.85099095
20	0x3f0fae79	0.561256
21	0x3f34cebd	0.7062796
22	0x3fae7398	1.3629026
23	0x3f5c71a7	0.8611092
24	0x3f2c9be6	0.6742538
25	0xbdaec738	-0.08534092
26	0x3f08cece	0.5344056
27	0x3da53322	0.080663934
28	0xbeb0e9a3	-0.3455325
29	0x3f0842a9	0.53226715
30	0x3f06e2fd	0.52690107
31	0x3fa639e1	1.2986413
32	0x3f72048e	0.945382
33	0x3f4f06f1	0.80869967
34	0x3d844b78	0.06459707
35	0x3efc987e	0.49335092
36	0x3f8573e1	1.0425988
37	0x3f8b9e8b	1.0907758
38	0x3e084eab	0.1331126
39	0xbe8b1222	-0.27162272
40	0x3e93d879	0.28876093
41	0x3debc3db	0.11511966
42	0x3d9c72ab	0.07639059
43	0x3e0eaeb4	0.13933831
44	0x3f1008c9	0.56263405
45	0x3c2c28c6	0.010507768
46	0x3ea69470	0.32535124
47	0xbefed717	-0.49773476
48	0xbf366f6b	-0.7126376
49	0xbed420a2	-0.41431147
50	0xbf4dc6ba	-0.8038136
51	0xbf400ee0	-0.750227
52	0xbf254365	-0.6455596
53	0xbf7ec493	-0.995187
54	0xbf32740e	-0.69708335
55	0x3e099e76	0.13439354
56	0xbe8f8536	-0.2803132
57	0xbd480f5a	-0.048842765
58	0xbe3261c2	-0.17420104
59	0x3db706fc	0.08936879
60	0xbec23fe8	-0.37939382
61	0xbe1cd5fc	-0.15316004
62	0xbf91e1e7	-1.1397065
63	0xbfb49841	-1.4108964
64	0xbf4848fc	-0.78236365
65	0xbec6c134	-0.38819277
66	0xbe6179d5	-0.22019131
67	0xbede6b1a	-0.43441087
68	0xbd347453	-0.044056248
69	0x3f0f4bc5	0.5597499
70	0x3f5b9204	0.8576968
71	0x3ee1b4d4	0.44083273
72	0x3efc508a	0.49280196
73	0x3ceb9af8	0.028760418
74	0x3f250b75	0.6447061
75	0x3d2fbb70	0.042903364
76	0x3f1c17cd	0.6097382
77	0xbe9cc0ca	-0.30615836
78	0x3f5dacc9	0.86591774
79	0x3dd13165	0.102144994
80	0xbe41998b	-0.18906228
81	0xbe1c282a	-0.15249696
82	0x3f1d06b5	0.6133836
83	0xbdaa5e60	-0.08318782
84	0xbe24c76f	-0.16091703
85	0xbebb2a0f	-0.36555526
86	0x3de3c8ae	0.11122261
87	0x3efacfd2	0.4898668
88	0x3e1962c8	0.14979088
89	0x3e0e32d8	0.13886583
90	0xbe9886bc	-0.29790294
91	0x3ea47ba5	0.32125583
92	0xbd8736cc	-0.066022485
93	0x3f591a0f	0.8480539
94	0x3ea6cb13	0.32576808
95	0x3fa0a6c7	1.2550896
96	0x3f5e7866	0.86902463
97	0x3f2a0c20	0.6642475
98	0x3f56d648	0.8392072
99	0x3f23b0f6	0.63941896
100	0x3ec571cd	0.38563386
101	0x3e79668f	0.24355529
102	0x3eb18d89	0.34678295
103	0xbe7d86c5	-0.24758442
104	0x3e81115c	0.25208557
105	0xbd48e63b	-0.04904769
106	0x3e890b7f	0.26766583
107	0x3e303211	0.17206599
108	0x3f52218c	0.8208244
109	0x3e61d2f7	0.22053133
110	0x3e7d7939	0.24753274
111	0x3d91c882	0.07118322
112	0x3eb167ea	0.34649593
113	0x3eaaae8d	0.33336297
114	0x3d8660b2	0.06561412
115	0x3f09479d	0.536249
116	0xbdf830ce	-0.12118684
117	0xbf00e324	-0.5034659
118	0xbe92ebca	-0.28695518
119	0xbd290783	-0.04126693
120	0xbe6b4c1f	-0.22978257
121	0x3d0b0bfe	0.033946984
122	0xbf49ae45	-0.7878154
123	0xbf229846	-0.635136
124	0xbf91cf41	-1.1391374
125	0xbf132177	-0.5747294
126	0xbf3134cf	-0.69221205
127	0xbf0e6bd6	-0.55633295
128	0xbe9773e3	-0.29580602
129	0xbf78507f	-0.9699783
130	0xbef76766	-0.48321074
131	0x3d13770d	0.036002208
132	0x3e8ccc9b	0.27499852
133	0x3e316258	0.17322671
134	0x3ef19669	0.47185066
135	0x3f91d23f	1.1392287
136	0x3f25e794	0.64806485
137	0xbd719f4b	-0.058989804
138	0x3fbee621	1.491398
139	0x3fa67e69	1.3007327
140	0x3f48a0e6	0.7837051
141	0x3f0eee44	0.55832314
142	0x3f08a568	0.5337739
143	0x3fa1faba	1.2654641
144	0x3f99ecdd	1.202541
145	0x3fdfdb49	1.7488796
146	0x3fed9c23	1.8563274
147	0x4010672d	2.2562973
148	0x3fece0dd	1.8506123
149	0x3f3a11e8	0.7268357
150	0x3f68e714	0.909776
151	0x3efc803c	0.49316585
152	0xbe9a4007	-0.30126974
153	0x3c07e6b2	0.008294748
154	0xbda5de50	-0.08099043
155	0xbda26012	-0.0792848
156	0x3ee413fe	0.44546503
157	0x3e88b8d6	0.2670352
158	0xbe94e23d	-0.29078856
159	0xbf1422c7	-0.57865566
160	0xbe09e31b	-0.1346554
161	0xbf11ad2e	-0.56904876
162	0xbf12696e	-0.5719212
163	0xbe83269d	-0.25615397
164	0xbf35421b	-0.70803994
165	0xbf90252b	-1.1261343
166	0xbf964a1e	-1.1741369
167	0xbfb3e370	-1.4053783
168	0xbf6cdf8c	-0.92528605
169	0xbeef0950	-0.46686792
170	0xbddc147f	-0.10746097
171	0xbefe18d1	-0.49628308
172	0xbe9f8ff4	-0.31164515
173	0xbe3c949f	-0.1841607
174	0xbd83d303	-0.06436732
175	0x3f1b09e5	0.6056197
176	0xbeb631bb	-0.35584816
177	0xbe3b9b28	-0.18320906
178	0xbe6e1c58	-0.23253
179	0xbf143319	-0.5789047
180	0xbf10e3dd	-0.5659769
181	0xbf192def	-0.59835714
182	0xbf1bbf50	-0.60838795
183	0xbebbe2f6	-0.36696595
184	0xbf7275ac	-0.94710803
185	0x3d349ca3	0.044094693
186	0xbf025e15	-0.5092481
187	0xbf21975e	-0.63121593
188	0xbf28fff5	-0.6601556
189	0xbebec718	-0.3726127
190	0xbf1a0b18	-0.6017318
191	0xbfa82ca4	-1.3138623
192	0xbf200761	-0.6251126
193	0xbf94d457	-1.1627301
194	0xbee47d71	-0.44626954
195	0xbe1a029a	-0.15040055
196	0xbc802bf4	-0.015645958
197	0xbec360b8	-0.38159728
198	0xbe4f05ac	-0.20217007
199	0xbf06f7e6	-0.52722013
200	0xbe91391f	-0.28363892
201	0xbf666b4a	-0.9000746
202	0xbf2b292d	-0.66859704
203	0xbf875621	-1.057316
204	0xbe206a11	-0.15665461
205	0xbf7d69de	-0.98989666
206	0xbec32c10	-0.38119555
207	0x3ea4a9ed	0.32160893
208	0xbe66c4f1	-0.22536065
209	0xbd095937	-0.033532348
210	0xbebfbd0d	-0.37448922
211	0x3f4966d1	0.7867251
212	0x3eb0979a	0.34490663
213	0x3ecec938	0.40387893
214	0x3e07da7b	0.13266937
215	0x3f08276d	0.5318516
216	0xbd801867	-0.062546544
217	0x3f1b0797	0.60558456
218	0x3ee1dce0	0.44113827
219	0x3ee43273	0.4456974
220	0xbd22c5d2	-0.039739437
221	0x3f97e587	1.1866921
222	0x3e947fb6	0.29003686
223	0x3d5502e0	0.052004695
224	0x3f2cdbb1	0.6752272
225	0x3e3bd60d	0.18343373
226	0x3f31ee5b	0.69504327
227	0x3f3bf947	0.7342724
228	0x3ef6ded5	0.48216882
229	0x3e842cb6	0.25815362
230	0x3fafea53	1.3743385
231	0x3ea71b55	0.3263804
232	0x3f27700e	0.65405357
233	0xbdc66f54	-0.09689203
234	0xbd62d65b	-0.055380207
235	0x3e3f88e1	0.18704559
236	0xbe8db730	-0.27678823
237	0xbf05d597	-0.5227904
238	0xbf23cdd2	-0.6398593
239	0x3ea5f32a	0.32412082
240	0xbee35870	-0.4440341
241	0x3f0b931f	0.54521364
242	0x3eeb2336	0.459253
243	0x3e9a7dad	0.30174008
244	0xbe5eeccf	-0.21770023
245	0x3c38cf30	0.011279866
246	0x3cb73c55	0.022367636
247	0x3ec6c6bd	0.388235
248	0xbf2b80b8	-0.66993284
249	0x3eb2169a	0.3478287
250	0xbde8b140	-0.11361933
251	0x3ea214e7	0.31656572
252	0x3e32d1ee	0.17462894
253	0x3d8b2887	0.06794839
254	0x3e998092	0.29980904
255	0x3e44f664	0.19234616

encoder.rnn1.weight_hh_l0 f4 [56, 14]
0	0x4059b7ef	3.4018514
1	0x4035198f	2.829685
2	0xc0d2af8d	-6.5839295
3	0x4066c7d3	3.6059463
4	0x3f0458bf	0.51697916
5	0x3f240138	0.6406436
6	0x406e4359	3.7228606
7	0x3ef31f73	0.4748493
8	0x4083941e	4.1118307
9	0xbe0bf8e5	-0.13669164
10	0xbfcc7655	-1.5973612
11	0xc092c429	-4.5864453
12	0x3f7b38ad	0.98133355
13	0x40747fba	3.8202958
14	0x3fe8ddcb	1.8192686
15	0x3f5bd6bc	0.85874534
16	0xc0440a48	-3.0631275
17	0x3e23be59	0.1599058
18	0xbfabdfce	-1.3427675
19	0xbf2395d0	-0.6390047
20	0x3ef6adc4	0.48179448
21	0xbf264efa	-0.6496426
22	0xbf59ef30	-0.85130596
23	0x3f1dae6e	0.61594284
24	0x3eda7898	0.4267013
25	0xc024df29	-2.5761206
26	0xbe1c81dc	-0.15283912
27	0x3e0ec25b	0.13941328
28	0x3fad06e2	1.3517725
29	0x3ec12281	0.37721637
30	0xc0ad2d0e	-5.41175
31	0xbeff1945	-0.49823967
32	0x3f41bf71	0.7568274
33	0xbfaa916d	-1.332563
34	0xbecd871f	-0.40142152
35	0x3f5a0b02	0.85173047
36	0x3e3d7cdb	0.1850466
37	0xbfc868bb	-1.5656961
38	0x3edc993d	0.43085662
39	0x401e9bda	2.4782624
40	0x3ec18b11	0.37801412
41	0x3f8faa8e	1.1223924
42	0x409f738e	4.982856
43	0x4066e3ae	3.6076465
44	0xc0c429c0	-6.1300964
45	0x4015d7e9	2.341303
46	0xbf9757e3	-1.1823696
47	0x3fe1a487	1.7628335
48	0x3fe5b474	1.7945695
49	0x3ef6f81e	0.48236173
50	0x407fa9eb	3.994746
51	0xbe53bc2e	-0.20677254
52	0x3f6a7a07	0.9159245
53	0xc0880bf3	-4.2514586
54	0x3f49deb4	0.78855443
55	0x404f2ec6	3.2372298
56	0x40887022	4.263688
57	0x402eee03	2.733277
58	0xc066a8c4	-3.6040506
59	0x3f8a38cd	1.0798584
60	0xbf9e5f70	-1.2372875
61	0x40136479	2.3030074
62	0x3fc3078a	1.5236676
63	0x3f98e519	1.1944915
64	0x400fdd1a	2.24787
65	0x3e0cf70f	0.1376612
66	0xbf966f86	-1.1752784
67	0xc0858adb	-4.1732
68	0x3fa2c422	1.2716105
69	0x3e4890cf	0.1958649
70	0x406e5c7b	3.7243946
71	0x4038ac0f	2.8855016
72	0xc04ac437	-3.168226
73	0x3f75ef29	0.96068054
74	0xbf0bac10	-0.5455942
75	0x3f8be82d	1.093023
76	0x3fec8ad1	1.8479863
77	0x3db8bbae	0.09020172
78	0x3e7f2970	0.24918151
79	0xbe0e8c2b	-0.13920657
80	0x3efa5715	0.48894563
81	0xc03668c2	-2.850144
82	0x3fb4d115	1.4126307
83	0x3f591cb7	0.8480944
84	0x3f5242e7	0.82133335
85	0x3fbcfb7b	1.4764246
86	0xc0673efe	-3.6132197
87	0x3fd3b75b	1.6540331
88	0xbd2dbf9d	-0.042419065
89	0x3f93c37d	1.1544033
90	0x40016e2e	2.0223498
91	0x3f983418	1.1890898
92	0x402dcb9d	2.7155526
93	0x3ed3b30e	0.41347545
94	0xbeaa06b9	-0.33208254
95	0xc03b47f1	-2.926266
96	0x3eae50ff	0.3404617
97	0x3fd45724	1.6589093
98	0x4044585c	3.067893
99	0x40479e56	3.119039
100	0xc094acc2	-4.6460886
101	0x400c64b7	2.1936471
102	0x3f49d0ce	0.78834236
103	0x40197df3	2.3983123
104	0x40962aaa	4.692708
105	0x3eb43358	0.35195422
106	0x40b7d25c	5.7444286
107	0xbf5e6c53	-0.8688404
108	0xbf7214f3	-0.94563216
109	0xc084ab2e	-4.145896
110	0xbeaedef2	-0.3415447
111	0x403f9d8b	2.9939907
112	0x4009c068	2.1523685
113	0x3fe1f038	1.7651434
114	0xc0955c55	-4.667521
115	0x40145b10	2.318058
116	0xbe52bf4f	-0.20580791
117	0x3ff0daab	1.8816732
118	0x40509c90	3.2595558
119	0x3eda0689	0.4258311
120	0x40c75190	6.2287064
121	0x3d1f2e5e	0.03886258
122	0xbfcbf3f9	-1.593383
123	0xc019a3a5	-2.400613
124	0x3e8ab50c	0.27091253
125	0x40812b65	4.036547
126	0x3f9e1541	1.2350236
127	0x3f46e918	0.7769942
128	0xc00b0253	-2.1720169
129	0x3fad8dcb	1.3558897
130	0x3fb056a2	1.3776438
131	0xbd4fc62f	-0.050726112
132	0x3ec6169e	0.3868913
133	0xbfb1f3e1	-1.3902551
134	0x40388327	2.883005
135	0xbfc043aa	-1.502065
136	0x3dc0fa66	0.0942276
137	0xc003721a	-2.0538392
138	0x3f3c16dc	0.7347238
139	0x3ed1c6b7	0.4097192
140	0x3fe638a4	1.7986035
141	0x4006218d	2.0957978
142	0xc02eeabf	-2.7330778
143	0x3fa35349	1.2759792
144	0xbf8cde46	-1.1005332
145	0x3c892659	0.016741918
146	0x3f1eb087	0.6198811
147	0x3e085c08	0.13316357
148	0x401dc134	2.4649172
149	0x3fc18c21	1.5120889
150	0xbfdd3ecc	-1.7284789
151	0xc014922d	-2.3214219
152	0x3f06d917	0.52675
153	0x3fdc739c	1.7222781
154	0x40940088	4.625065
155	0x405ab4c8	3.417284
156	0xc0b40003	-5.6250014
157	0x405d88ed	3.4614823
158	0xbf4393c2	-0.76397336
159	0x4092cf29	4.587788
160	0x40b4a18e	5.644721
161	0x3f34f5ac	0.70687366
162	0x404ec2d5	3.2306416
163	0xbf6ae2ce	-0.91752326
164	0xbf6db489	-0.928536
165	0xc1107e2d	-9.030805
166	0x3f39ae5c	0.72531676
167	0x407ebfbb	3.9804523
168	0x404f8c50	3.242939
169	0x40782098	3.8769894
170	0xc09a2c01	-4.8178716
171	0x403feccd	2.9988282
172	0x3e8994ba	0.26871282
173	0x3f9137d7	1.1345166
174	0x3fb9a2e4	1.4502835
175	0x3f112c33	0.5670807
176	0x40707e30	3.7577019
177	0x3f504906	0.81361425
178	0xbf848040	-1.0351639
179	0xc08e82e8	-4.45348
180	0x3cb01b64	0.021497436
181	0x400f39e0	2.2379074
182	0x4008b46d	2.1360123
183	0x3fef40ae	1.8691614
184	0xc003938b	-2.0558803
185	0x3fa9cb75	1.3265215
186	0xbff90a08	-1.9456186
187	0x3fa356b8	1.276084
188	0x3f2b753b	0.66975754
189	0x3c76058f	0.015015974
190	0x3f1561bb	0.5835225
191	0x3f98c296	1.1934383
192	0xbf410d33	-0.75410765
193	0xc004e84c	-2.0766783
194	0xbe835286	-0.25648898
195	0x3f84cceb	1.0375036
196	0x409db886	4.928775
197	0x407b8d1a	3.9304872
198	0xc0c3c73e	-6.1180716
199	0x3fca219c	1.5791507
200	0xbf1909ec	-0.59780765
201	0x3f654539	0.8955875
202	0x40158dd8	2.3367825
203	0x3f9bcb92	1.21715
204	0x404121b8	3.017683
205	0xbe170aa4	-0.14750153
206	0xbf10399d	-0.5633791
207	0xc0860e9c	-4.1892834
208	0xbf82d591	-1.0221425
209	0x3fe97935	1.8240114
210	0x3fe99b78	1.825057
211	0x3fccd170	1.6001415
212	0xc054dcef	-3.3259847
213	0x3fa6086a	1.2971318
214	0xbeb6f276	-0.35731858
215	0x3f01af74	0.50658345
216	0x3fbf0671	1.4923841
217	0xbf825fc5	-1.0185477
218	0x3ffd1007	1.9770516
219	0x3f84bb72	1.0369704
220	0xbe795714	-0.24349624
221	0xc04ce92a	-3.2017312
222	0xbc2b3cc2	-0.0104514975
223	0x3fb7f663	1.4372066
224	0x3e4844a5	0.19557436
225	0xbf1b4928	-0.606585
226	0x3e1eeaf4	0.15519315
227	0x3f4ae291	0.7925196
228	0x3fb9a67d	1.4503933
229	0x3f8e8aad	1.113607
230	0x3fa3c0ea	1.2793248
231	0xbf52371e	-0.8211535
232	0x3fdd9622	1.7311442
233	0xbfcf369e	-1.6188543
234	0x3f3f5cde	0.7475108
235	0xbfab4cf4	-1.3382859
236	0x3dc3b69a	0.09556313
237	0x3f1cb30b	0.612107
238	0x3fba4ece	1.4555299
239	0x3ff237a2	1.8923228
240	0xc052c64a	-3.2933526
241	0x400fd9bc	2.2476645
242	0x3f3ecc3c	0.74530387
243	0x4010a4e4	2.2600641
244	0x3f4f584b	0.809941
245	0x3f597737	0.8494753
246	0x4010c10e	2.2617831
247	0x3ed9a70b	0.42510256
248	0xc003e98e	-2.06113
249	0xbfd221f5	-1.6416613
250	0xbe68e9bd	-0.22745414
251	0x3fbb3e94	1.4628472
252	0x4050ccb6	3.2624946
253	0x40524f5d	3.286094
254	0xc0912c4d	-4.536658
255	0x3fa16dad	1.2611595

encoder.rnn1.bias_ih_l0 f4 [56]
0	0xc16702b9	-14.438165
1	0xc0c64299	-6.1956296
2	0x3ee1e2cc	0.44118345
3	0xc1991446	-19.1349
4	0xc0a9d64e	-5.3074102
5	0xc16dff4b	-14.874827
6	0xc115a210	-9.352066
7	0xc193cea0	-18.475891
8	0xc146682c	-12.400433
9	0xc1293e39	-10.577691
10	0xc12fbd31	-10.983689
11	0xc1720796	-15.126852
12	0xc14c6c90	-12.7765045
13	0xc0d4d6c8	-6.6512184
14	0xc0f339f3	-7.600824
15	0xc0abd55c	-5.369795
16	0xc00794b8	-2.118452
17	0xc0b5715b	-5.6700873
18	0xc0ef3968	-7.4757576
19	0xc0c9ad7a	-6.3024263
20	0xc1047243	-8.277896
21	0xc0ca94c5	-6.3306603
22	0xc1171f0f	-9.445083
23	0xc08dec3b	-4.4350867
24	0xc0866c4d	-4.2007203
25	0xc1121a6e	-9.131453
26	0xc0a28c52	-5.079629
27	0xc1076381	-8.461793
28	0xc076308c	-3.846713
29	0xc08706c5	-4.2195764
30	0x41589aff	13.537841
31	0xc01ac884	-2.4184885
32	0xbe7d9278	-0.24762905
33	0xc01dfd4c	-2.468585
34	0xc0c6c34a	-6.211339
35	0xc02c631f	-2.6935499
36	0xc0ad003a	-5.4062777
37	0x40c54905	6.1651635
38	0x3f406780	0.7515793
39	0x40a2a5c2	5.082734
40	0xbe71b30c	-0.23603457
41	0xc0c7ba5f	-6.2415004
42	0xc17a75df	-15.653777
43	0xc1d7dabf	-26.98181
44	0x412e1ea9	10.882485
45	0xc1cb1083	-25.383062
46	0xc0dbba0a	-6.86646
47	0xc191c387	-18.220472
48	0xc1793461	-15.575288
49	0xc1bac452	-23.34586
50	0xc161b38c	-14.106335
51	0xc1a630bc	-20.773796
52	0xc1dcb27f	-27.587156
53	0xc1801007	-16.007826
54	0xc1d68d38	-26.818954
55	0xc0ed5780	-7.416931

encoder.rnn1.bias_hh_l0 f4 [56]
0	0xc1696856	-14.587973
1	0xc0cbb3f9	-6.3657193
2	0x3da3a55c	0.07990524
3	0xc1977db9	-18.936388
4	0xc0b25d97	-5.5739245
5	0xc1692686	-14.571905
6	0xc10fd36f	-8.98912
7	0xc1922e92	-18.27274
8	0xc1460ff1	-12.378892
9	0xc12db921	-10.8576975
10	0xc132f823	-11.18558
11	0xc16f6dd1	-14.964311
12	0xc149003a	-12.562555
13	0xc0ca475b	-6.3212104
14	0xc0e5f58f	-7.1862254
15	0xc0b3f5b0	-5.623741
16	0xc00cfd35	-2.2029545
17	0xc0c3485d	-6.1025834
18	0xc0f80545	-7.7506433
19	0xc0c86c56	-6.2632246
20	0xc109b1c9	-8.605905
21	0xc0c3c69e	-6.1179953
22	0xc1120ae0	-9.127655
23	0xc0903728	-4.506733
24	0xc083a7a3	-4.1142135
25	0xc1105175	-9.019887
26	0xc0acbc0f	-5.3979564
27	0xc1027b80	-8.155151
28	0xc0807fbc	-4.0155926
29	0xc082eaa3	-4.091142
30	0x415b7035	13.714894
31	0xc012ef1d	-2.2958443
32	0x3dbfb6ea	0.0936106
33	0xc00721e2	-2.111443
34	0xc0c18304	-6.047243
35	0xc0383be4	-2.8786554
36	0xc0ab9504	-5.3619404
37	0x40c4801a	6.1406374
38	0x3f627609	0.8846136
39	0x40a0721d	5.01393
40	0xbe77e164	-0.24207073
41	0xc0c07f5e	-6.0155478
42	0xc180ce8c	-16.100853
43	0xc1da2049	-27.265764
44	0x41326031	11.148484
45	0xc1cae364	-25.36103
46	0xc0e1c678	-7.055477
47	0xc193ed80	-18.490967
48	0xc1732514	-15.196552
49	0xc1bd1c22	-23.638737
50	0xc164e947	-14.306952
51	0xc1a4dfb8	-20.609238
52	0xc1dd2f77	-27.648176
53	0xc1812579	-16.143297
54	0xc1d68427	-26.814528
55	0xc0e78ddb	-7.2360663

encoder.rnn2.weight_ih_l0 f4 [28, 14]
0	0xbf76f7f0	-0.9647207
1	0xbf844934	-1.033484
2	0x3fc05009	1.5024425
3	0x3ed62b17	0.4182975
4	0xbdfb76f0	-0.12278545
5	0x3ef2e414	0.47439635
6	0xbec2245e	-0.3791837
7	0x3f25fdd4	0.64840436
8	0x3f9d8d9f	1.2308844
9	0x3e8e8b01	0.27840427
10	0xbf291f59	-0.6606346
11	0x3ff395bd	1.9030071
12	0x3e01a570	0.12660766
13	0x3fba5958	1.4558516
14	0x3ead11ae	0.3380255
15	0x3e93172f	0.28728625
16	0xbf0a3380	-0.5398483
17	0xbe138ca2	-0.14409116
18	0xbdb0e0c9	-0.08636624
19	0xbcb4b23c	-0.022057645
20	0x3e904db1	0.28184274
21	0xbee4b160	-0.44666576
22	0x3df7e538	0.12104267
23	0xbe1af73f	-0.1513338
24	0x3d0d5e47	0.034513738
25	0xbd801302	-0.062536255
26	0xbe67ac18	-0.22624242
27	0x3e0fa1c6	0.14026555
28	0xbc50abd0	-0.012736276
29	0xbeaca694	-0.3372084
30	0xbe9f6dec	-0.3113855
31	0xbc90a173	-0.01765511
32	0x3ddfcf20	0.10928178
33	0x3e9e98e6	0.30976027
34	0x3e808e0e	0.2510838
35	0xbf39eb81	-0.72624975
36	0xbf26be0c	-0.6513374
37	0xbd2110b9	-0.03932259
38	0x40426330	3.037304
39	0xbeffe679	-0.49980524
40	0x3e14db02	0.1453667
41	0x3e207c52	0.15672424
42	0x3e178975	0.1479853
43	0xc0235dfe	-2.5526118
44	0x3d25e7d0	0.040504277
45	0x3ed214ac	0.41031396
46	0x3df05517	0.117349796
47	0x3f269319	0.65068203
48	0x3d7bf977	0.061517205
49	0x3dae89b7	0.08522361
50	0x3ebf8ed1	0.37413648
51	0xbe02ed1b	-0.12785761
52	0x3e1b4cd1	0.15166022
53	0x3d2e98d7	0.04262623
54	0xbcf3d180	-0.029762983
55	0x3ec9c0c9	0.39404896
56	0x3eb0beda	0.34520608
57	0xbf0afbb7	-0.54290336
58	0xbec9a7c9	-0.39385822
59	0xbf4eccae	-0.80781066
60	0xbd93bbfb	-0.07213589
61	0x3dda995c	0.10673782
62	0xbd73966d	-0.05946963
63	0xbe8db5ab	-0.27677664
64	0x3dd5f71c	0.10447523
65	0x3fc5a04b	1.5439543
66	0x3eee2873	0.46515235
67	0x3dfe01dc	0.124026984
68	0x3f7b1edc	0.9809396
69	0x3e53e377	0.2069224
70	0x3f222a4a	0.6334578
71	0xbe83037b	-0.25588593
72	0xbf0ad888	-0.5423665
73	0xbd99db4b	-0.0751253
74	0x3d179736	0.03700944
75	0x3eadabb0	0.3392005
76	0xbed61d00	-0.41819
77	0x3f00e5e4	0.50350785
78	0xbbc7429c	-0.0060809385
79	0xbd4eed65	-0.050519366
80	0x3edd947d	0.4327735
81	0xbdeb2099	-0.11480827
82	0x3e793756	0.24337515
83	0x3e294d19	0.16533317
84	0xbe9f9532	-0.31168514
85	0x3f2a7fd3	0.66601294
86	0xbe8b1877	-0.27167103
87	0x3eea7a3a	0.45796376
88	0xbc39b120	-0.011333734
89	0x3eae84bd	0.34085646
90	0x3ea24eb1	0.31700662
91	0x3c53ae9a	0.012920046
92	0x3e8fc592	0.28080422
93	0x3e051685	0.12996872
94	0xc063e202	-3.5606694
95	0x3f249d88	0.64302874
96	0x3e74dfe4	0.23913532
97	0x3f1b5b7d	0.60686475
98	0xbf72b939	-0.9481388
99	0x406a60ef	3.6621664
100	0x400d4fcb	2.2079952
101	0x3f8d4cd9	1.1039077
102	0xbf15d553	-0.5852863
103	0xbf89c903	-1.0764469
104	0xbf29d112	-0.6633464
105	0x40000e8d	2.000888
106	0x3f5b44e6	0.85652006
107	0xbe1f3635	-0.15548022
108	0xbf33ae60	-0.7018795
109	0xbf651c33	-0.89496154
110	0xbf66f70a	-0.902207
111	0xbe0038dd	-0.12521692
112	0xbf02ccb0	-0.5109358
113	0x3efda5c4	0.49540532
114	0x3ec1004c	0.3769554
115	0x3f3e3206	0.7429508
116	0x3bce70b2	0.0063000554
117	0x3ed6465c	0.41850555
118	0x3dc16807	0.0944367
119	0x3fa7acc4	1.3099599
120	0x3e15f606	0.14644632
121	0xbe447dbd	-0.1918859
122	0x3d9f8c5a	0.07790442
123	0x3f58e109	0.84718376
124	0x40241860	2.5639877
125	0xbf0d8de3	-0.55294627
126	0x3eb023af	0.34402224
127	0xbf2c8e44	-0.6740458
128	0xbfc58721	-1.5431863
129	0xbfb32176	-1.3994586
130	0xbdacb6c7	-0.084332995
131	0xbf89e5af	-1.0773219
132	0x3f4bf70f	0.79673856
133	0xbf8a4a7a	-1.0803978
134	0x3f1965ca	0.5992094
135	0xbeec908a	-0.46204025
136	0x4017e378	2.3732586
137	0x3fa33d89	1.2753154
138	0xbeaf6003	-0.3425294
139	0x3eb7d0fa	0.35901624
140	0x3f119ecb	0.56882924
141	0xbeb43caf	-0.35202548
142	0xbfb5529c	-1.4165835
143	0xbf03ac7a	-0.51435053
144	0x3da972b3	0.0827383
145	0xbd96a953	-0.07356515
146	0xbea9502f	-0.33068988
147	0x3e2b1227	0.16706143
148	0xbebd1b6d	-0.36934987
149	0xbeb4a992	-0.35285622
150	0x3f2ed5b0	0.6829481
151	0xb9d49ab3	-0.0004055105
152	0xbe03a7ae	-0.12856933
153	0xbe6fc798	-0.23415983
154	0x3f9dc111	1.2324544
155	0x3e0d0573	0.1377161
156	0xbfb9daa4	-1.4519849
157	0xbf9072cc	-1.1285033
158	0x3f87adc4	1.0599904
159	0xbf14641f	-0.5796527
160	0xbd2f6215	-0.042818148
161	0x3e111bea	0.14170805
162	0x3fb59111	1.4184896
163	0x3f7569dd	0.9586466
164	0x3fa59a0c	1.2937636
165	0xc0038703	-2.0551155
166	0xbf1a9d98	-0.6039672
167	0x3cbf0bf7	0.023321135
168	0xbe50820f	-0.20362113
169	0x3fb36636	1.4015567
170	0xbd3fef8f	-0.04685932
171	0x3ebe750e	0.3719868
172	0xbe01c684	-0.12673384
173	0xbea408eb	-0.32038054
174	0x3ed4a049	0.41528538
175	0xbddeb238	-0.10873836
176	0xbe7a3184	-0.24432951
177	0xbe45eb4d	-0.19328041
178	0xbe87b0a0	-0.26501942
179	0x3bce3b72	0.0062937075
180	0x3d93af8e	0.07211219
181	0xbe2eb36c	-0.17060632
182	0xbe4dac62	-0.2008529
183	0xc00795f4	-2.1185274
184	0x3ee7388e	0.45160335
185	0xbffe4ef1	-1.9867841
186	0xbeaf23db	-0.34207043
187	0xbfb1515b	-1.3852953
188	0xbe88ea0f	-0.26741073
189	0x3f9e3806	1.2360847
190	0x3f3e7091	0.7439051
191	0xbe7d03d7	-0.24708496
192	0xc001d77c	-2.0287771
193	0x3e8d663d	0.27617064
194	0xbf82e9aa	-1.0227559
195	0xbda87e26	-0.08227186
196	0xbf5ad662	-0.8548337
197	0xbf6ce0a1	-0.92530257
198	0x3e86f8f3	0.26361808
199	0x3e5036a0	0.20333338
200	0x3dd9f0d7	0.1064164
201	0x3d863226	0.06552534
202	0xbe90f622	-0.28312784
203	0xbd03b23c	-0.0321524
204	0x3dd42268	0.10358125
205	0x3d5ff9e2	0.054681666
206	0xbd2fbde9	-0.04290572
207	0x3ed509e1	0.416091
208	0x3e55a865	0.20865019
209	0xbfb5f76a	-1.421613
210	0x3d300467	0.04297295
211	0x3e9cbdbd	0.3061351
212	0x3bb6fe0c	0.005584484
213	0x3eab7b71	0.33492616
214	0xbfda86fe	-1.7072446
215	0x3dff7b20	0.12474656
216	0x3e0768aa	0.1322352
217	0x3da2382c	0.0792087
218	0x3d90d4d2	0.07071842
219	0xbe961801	-0.2931519
220	0xbf020d3f	-0.5080146
221	0x3ec86560	0.39139843
222	0xbe913163	-0.28357992
223	0xbca3a073	-0.01997397
224	0xbee7cd66	-0.45273894
225	0xbf933d2d	-1.1503044
226	0x3f3db9b7	0.74111503
227	0x3b9c846d	0.0047765286
228	0xbd5a5871	-0.053307
229	0x3d4660b1	0.048432056
230	0xbf36a732	-0.7134887
231	0x3eed7dc4	0.46385014
232	0xbed6d4cd	-0.4195923
233	0x3e8256e2	0.2545691
234	0x3eb603fb	0.35549912
235	0xbf8567aa	-1.0422261
236	0x3e3d60ba	0.1849393
237	0x3e21b1a3	0.1579042
238	0xbeb355ed	-0.35026494
239	0x3ebfa6a8	0.37431836
240	0x3eeb1f7a	0.45922452
241	0x3eb1a7a2	0.34698206
242	0x3d39acf9	0.045330975
243	0xbca371e1	-0.019951763
244	0x3c864915	0.01639227
245	0xbbf057a0	-0.0073346645
246	0xbdaff021	-0.08590723
247	0x3e0531c3	0.13007264
248	0xbe92c489	-0.2866557
249	0x3da904cd	0.08252869
250	0x3dbac339	0.09119267
251	0xbd96a583	-0.073557876
252	0x3db39b81	0.087698944
253	0xbe7e4fd7	-0.24835144
254	0xbca3771e	-0.01995426
255	0x3c7ec9ac	0.015551012

encoder.rnn2.weight_hh_l0 f4 [28, 7]
0	0x3f3acd1a	0.7296921
1	0xbf0c92dd	-0.54911596
2	0xbf8cbed2	-1.0995734
3	0xc053f70e	-3.311954
4	0x3fbbdf01	1.467743
5	0xc06cd994	-3.70078
6	0x3f3e9ffb	0.7446286
7	0x3fd479d0	1.6599674
8	0xbe7c1bd0	-0.24619985
9	0xbe8c4edc	-0.27403915
10	0xbfce961a	-1.6139557
11	0x3f70a162	0.9399625
12	0xc01187c1	-2.2739108
13	0x3f345538	0.70442533
14	0xbf8f8338	-1.121192
15	0xbfa0f7d4	-1.2575631
16	0xbdb4fd06	-0.08837323
17	0x3f584656	0.84482324
18	0xc00dab1a	-2.2135682
19	0xbe3e51a2	-0.18585828
20	0x3fa74eac	1.3070884
21	0x4092ea3e	4.591094
22	0xc0aacc60	-5.337448
23	0xbfacabef	-1.348997
24	0x3f12d610	0.57357883
25	0xc09e7edc	-4.952986
26	0xbe73ea58	-0.23819864
27	0xc017c075	-2.3711216
28	0x3fc4e955	1.5383707
29	0xbf04eb13	-0.51921195
30	0x3dec21a6	0.115298554
31	0xbf0ee907	-0.5582432
32	0x3e8f9481	0.28042987
33	0xbfc18989	-1.5120097
34	0xbd01ca3d	-0.03168701
35	0xbf871c5d	-1.0555531
36	0xbe214daa	-0.15752283
37	0xbf50026a	-0.81253684
38	0xbfd45432	-1.6588194
39	0xbf155206	-0.5832828
40	0x3eef31f4	0.467178
41	0x3f57fb52	0.8436786
42	0x3e8c575a	0.27410394
43	0x4040bb8a	3.0114465
44	0xc03a8a1f	-2.9146802
45	0x400ffa53	2.2496536
46	0xbdf34975	-0.11879245
47	0x403c69c1	2.9439547
48	0xbed07c2a	-0.4071973
49	0x4010c287	2.261873
50	0xbf0333cf	-0.5125093
51	0x3f11fdb2	0.57027733
52	0xc08762f8	-4.230831
53	0x3eafff07	0.34374258
54	0xbf517b1f	-0.8182849
55	0x3ec4ba65	0.38423458
56	0x3fe8818d	1.8164536
57	0x3f96a36e	1.1768625
58	0x3f4ac5e7	0.79208225
59	0xbfb8b182	-1.4429171
60	0x4020a5f6	2.5101295
61	0xbfa61ee1	-1.2978173
62	0x3ea22bb2	0.31673962
63	0xc02fc949	-2.7466605
64	0xc045bb61	-3.0895617
65	0x3fd11fa2	1.6337779
66	0xc01e4714	-2.4730883
67	0xc0e310de	-7.095809
68	0x406c923d	3.6964257
69	0x4058f6f7	3.3900735
70	0x408f7150	4.482582
71	0x3d154db9	0.036451075
72	0xbf3cac99	-0.73700863
73	0xc06a3d37	-3.6599863
74	0xbf99b1f6	-1.2007434
75	0x3fc60b88	1.5472269
76	0xbf0e89cf	-0.5567903
77	0x3fde04be	1.7345197
78	0x3efc4336	0.49270028
79	0x401d38a4	2.456582
80	0x3f68e1c6	0.909695
81	0xbf2ab8ae	-0.6668805
82	0x3e8586d1	0.2607942
83	0xbf5458d1	-0.82948023
84	0x3ed007f5	0.4063107
85	0xbfcd1164	-1.6020932
86	0xbf72edf9	-0.9489437
87	0x3f19e76b	0.6011874
88	0xbfeb85be	-1.840019
89	0x3e01ec9f	0.1268792
90	0x3f3c0332	0.73442376
91	0x40208628	2.5081882
92	0x3f14b2d0	0.58085346
93	0xbfa880fe	-1.3164365
94	0x3f3f25e6	0.74667203
95	0x3f8e2b59	1.1106979
96	0x3eed88b9	0.46393374
97	0xbc95d989	-0.018292205
98	0x3eb49e42	0.3527699
99	0x3cb70f54	0.022346176
100	0xbe91c7b7	-0.28472683
101	0xbfb242f5	-1.3926684
102	0x3ef7fc41	0.48434642
103	0xbf78f71f	-0.97252077
104	0x3e1ca019	0.15295447
105	0x3ebc0cac	0.36728418
106	0xbf2afdb2	-0.6679336
107	0xbf32a9f1	-0.6979056
108	0x3fb17214	1.3862939
109	0x3f5fa3f2	0.87359536
110	0xbfc6b6a2	-1.5524485
111	0x3d390f42	0.045180567
112	0x3f95b05b	1.1694444
113	0xbfa39098	-1.2778502
114	0x3fa0428e	1.2520311
115	0xc0619103	-3.5244758
116	0x401a0f85	2.4071972
117	0x3f5f29c4	0.87173104
118	0xbed4a9a3	-0.41535673
119	0x40903c2d	4.5073457
120	0xc098bd9c	-4.7731457
121	0xbfbec554	-1.490397
122	0xbf8bbf2c	-1.0917716
123	0xc05f3cee	-3.4880939
124	0xbe635e8f	-0.2220404
125	0xc07af762	-3.921349
126	0xbef83c1a	-0.48483354
127	0xbe556e2e	-0.20842811
128	0xbf125156	-0.5715536
129	0xbf1f6c35	-0.62274486
130	0xbef6ba2d	-0.48188916
131	0x3f10cdfb	0.565643
132	0x3f31c763	0.69444865
133	0x3e3be302	0.18348315
134	0x3d577430	0.05260104
135	0x3f4d9d84	0.80318475
136	0x3f226cd3	0.634473
137	0x3f4645e4	0.77450395
138	0x3e8e63cd	0.27810517
139	0xbf4a513a	-0.7903019
140	0x3eab1e2d	0.3342146
141	0xbfd70c7f	-1.6800689
142	0x40155b37	2.3336923
143	0xbfe6ea42	-1.804024
144	0xbf7f873f	-0.99815744
145	0xc02eebd1	-2.733143
146	0x3fd9cc94	1.7015557
147	0x3fbda059	1.4814559
148	0xbdc9c8a8	-0.09852725
149	0xbec39be9	-0.38204888
150	0xbf6cb582	-0.9246446
151	0x3ef9adbb	0.48765358
152	0xbfdadbb1	-1.7098294
153	0x3f9a303c	1.204597
154	0x3fcc04be	1.5938947
155	0xbe8fabdb	-0.28060803
156	0xbeec1f62	-0.46117693
157	0x3fdccc96	1.7249935
158	0x4005891c	2.0864935
159	0xc060f630	-3.515026
160	0x3e6f8073	0.23388843
161	0xc00268d8	-2.0376492
162	0xbfb75a0d	-1.4324356
163	0xbd8f2967	-0.06990319
164	0x3ff1d80b	1.8894056
165	0xc0403b5e	-3.0036235
166	0x3e0d2e7a	0.1378726
167	0x3f8ff94e	1.1247957
168	0x4055cc81	3.340607
169	0xbfbf6a5b	-1.4954332
170	0xbf327b9b	-0.69719857
171	0xbff2ef70	-1.897932
172	0xbf8916e4	-1.0710111
173	0xbdd1612f	-0.102236144
174	0xbf3a5d08	-0.72798204
175	0x3ffc0def	1.9691752
176	0xbe2a272c	-0.16616505
177	0x3f17ba15	0.59268314
178	0xbe891a6d	-0.26777974
179	0x3f8f1f2c	1.1181388
180	0xc00970a5	-2.1475003
181	0xbf2f5749	-0.6849256
182	0xbfed2703	-1.852753
183	0xbda2cecd	-0.079496
184	0xc01e603c	-2.4746237
185	0xbfd373b0	-1.651968
186	0xc011d604	-2.2786875
187	0xbf75eb8c	-0.9606254
188	0xbf08b873	-0.5340645
189	0x3f83fbe2	1.0311244
190	0x3fe4546e	1.7838266
191	0xbfc6d7ac	-1.5534568
192	0xbf6220ed	-0.8833149
193	0x3f8ce35b	1.1006883
194	0x3ff92d46	1.9466941
195	0xbea9768a	-0.3309825

encoder.rnn2.bias_ih_l0 f4 [28]
0	0x3f03ad23	0.5143606
1	0xbe9f891f	-0.31159303
2	0x3f494934	0.78627324
3	0x3f100071	0.56250674
4	0x3e148c20	0.14506578
5	0xbea221b0	-0.31666327
6	0x3f0f8027	0.5605492
7	0xc00ea984	-2.2290964
8	0xc008b353	-2.135945
9	0xbf471b14	-0.7777569
10	0xbf914cf8	-1.1351614
11	0xbfac7760	-1.347393
12	0xbf187f20	-0.5956898
13	0x3f0f5a0f	0.55996794
14	0x3f487d57	0.78316253
15	0x3f82112e	1.0161493
16	0xbf9eac13	-1.2396263
17	0x3dea5d3d	0.11443565
18	0xbf5cca34	-0.8624604
19	0xbf55b995	-0.834863
20	0xbf640136	-0.8906435
21	0xbf135cae	-0.5756329
22	0x4010666f	2.256252
23	0x3f4205be	0.7579001
24	0xbecfa78e	-0.40557522
25	0x3d837a4e	0.06419812
26	0x3fbcb44c	1.4742522
27	0xbebc8bd7	-0.3682544

encoder.rnn2.bias_hh_l0 f4 [28]
0	0x3e4dae71	0.20086075
1	0xbd080450	-0.033207238
2	0x3f2ff9ba	0.6874043
3	0x3f202634	0.62558293
4	0x3e1e938f	0.15485977
5	0x3db8e178	0.0902738
6	0x3f5d8a53	0.8653919
7	0xbfe4e5d8	-1.7882643
8	0xbfee5751	-1.8620397
9	0xbed5ed87	-0.4178278
10	0xbf9f8a84	-1.2464147
11	0xbfa61e3b	-1.2977976
12	0xbf8f1222	-1.1177409
13	0x3f1a4a63	0.60269755
14	0x3f0ab4f4	0.5418236
15	0x3f945eeb	1.1591467
16	0xbf9c6292	-1.2217581
17	0x3f0b0905	0.5431064
18	0xbee018d7	-0.4376895
19	0xbfab041b	-1.3360628
20	0xbf03aee1	-0.5143872
21	0xbea838a0	-0.328557
22	0x401f173c	2.485793
23	0x3e9d4806	0.30719012
24	0xbf1dc5fe	-0.6163024
25	0x3ecbf0b5	0.39832082
26	0x3fdb6a35	1.7141787
27	0xbeb22f79	-0.34801844

decoder.rnn1.weight_ih_l0 f4 [28, 7]
0	0xbf4a7677	-0.79087013
1	0xc02ec605	-2.7308362
2	0xbfcfdf01	-1.623993
3	0xbf1b8218	-0.6074538
4	0xbfa61e02	-1.2977908
5	0xbf9347cf	-1.1506289
6	0x3e52204e	0.20520136
7	0x3f1d4526	0.6143364
8	0xc01bae80	-2.4325256
9	0xbf765fff	-0.9624023
10	0xbfb762ae	-1.432699
11	0x3f068521	0.5254689
12	0xc00d2a8e	-2.2057223
13	0xc04309c9	-3.0474722
14	0xc016207f	-2.3457334
15	0xc0391335	-2.8917973
16	0x3fd2b140	1.6460342
17	0xbf5e6290	-0.86869144
18	0xbf57edf0	-0.8434744
19	0xbdb58e14	-0.0886499
20	0xc0928ef2	-4.5799494
21	0x4049e9c1	3.1548922
22	0x3fa0f771	1.2575513
23	0xc0351548	-2.829424
24	0xbd8a333e	-0.06748055
25	0x3fc2c8be	1.5217512
26	0x3ffd31b2	1.9780791
27	0x3ee9ae05	0.4564058
28	0x40444283	3.0665596
29	0xbe2ce691	-0.16884829
30	0xbd11e201	-0.035615925
31	0x3dbcca79	0.09218306
32	0x3f440403	0.7656862
33	0xc00cb237	-2.1983774
34	0xbfe40649	-1.7814418
35	0x40139b0d	2.3063385
36	0x3f0f9b33	0.5609619
37	0x3f851bbc	1.0399089
38	0x4052d9ba	3.294539
39	0xc00e0a64	-2.2193842
40	0xbf1b5cb5	-0.60688335
41	0x3f252a2b	0.6451747
42	0x40003e72	2.0038114
43	0x3e24e847	0.16104232
44	0xbf87a233	-1.0596374
45	0x3ec172e3	0.37782964
46	0xbffbbbc8	-1.9666681
47	0x400a0b2c	2.1569319
48	0xbff24a88	-1.8928995
49	0x3ff4d3d3	1.9127144
50	0xbfa02898	-1.2512388
51	0x3f35c41c	0.71002364
52	0xbfc5712b	-1.5425161
53	0xc0997327	-4.7953067
54	0x3f787900	0.9705963
55	0x3e2b5636	0.16732106
56	0xbf951d72	-1.1649611
57	0x40ae9f09	5.4569135
58	0xbf269177	-0.6506571
59	0x3f0ec9ab	0.5577647
60	0xc082e39c	-4.0902843
61	0x40a293e5	5.0805535
62	0x3e8f2846	0.27960414
63	0x3f38520b	0.7200019
64	0x40aea3de	5.4575033
65	0xbd93e405	-0.07221226
66	0x3ff33004	1.8999028
67	0x4059f302	3.405457
68	0x3e0dd571	0.13850953
69	0xbe7e3725	-0.24825723
70	0xc050c2b9	-3.261885
71	0x3e1c40ab	0.15259044
72	0x3fc0dc09	1.5067149
73	0x3d9a5916	0.07536523
74	0x3fb7e1da	1.43658
75	0xc048d2cc	-3.137866
76	0x3fc54056	1.5410259
77	0xc029a826	-2.650888
78	0x401f293e	2.4868922
79	0xc063f63f	-3.5619047
80	0xbd7d11b2	-0.061784454
81	0xc0185f37	-2.3808115
82	0x3eb49954	0.3527323
83	0xc00ca8ef	-2.197811
84	0x40850c62	4.1577616
85	0xbfcb36c3	-1.5876087
86	0xbfa64e33	-1.2992615
87	0xc002d69e	-2.0443492
88	0x3f406672	0.7515632
89	0x3f9e7171	1.237837
90	0x3f34ff0e	0.7070168
91	0x4036ecf3	2.8582122
92	0xbfdfa29b	-1.7471498
93	0xbf84feba	-1.0390236
94	0xbef00fee	-0.46887153
95	0x407fe0e3	3.998101
96	0x3e4f5f35	0.20251162
97	0x3fbd869b	1.4806703
98	0xbeeddb77	-0.464565
99	0xbf78cb5f	-0.9718532
100	0xbfb5d58f	-1.4205798
101	0x3f5545f8	0.8330989
102	0xbf52d5b6	-0.82357347
103	0xbf107a04	-0.5643618
104	0x3fa9f4a4	1.3277783
105	0x3fb7af77	1.4350423
106	0x3f24add6	0.6432775
107	0xbf7a9eab	-0.9789836
108	0xbebd331f	-0.36953065
109	0x3fbc0dfc	1.4691768
110	0x3f854ded	1.0414406
111	0xbfe595c6	-1.7936332
112	0x3fffdc7a	1.9989159
113	0xbf4291e2	-0.7600385
114	0x3e803d1c	0.25046623
115	0x3eba8605	0.36430374
116	0xbf42b031	-0.76050097
117	0xbf93f958	-1.1560469
118	0x3f3cb155	0.7370809
119	0xbd0eeb0b	-0.034892123
120	0xbf10de69	-0.5658937
121	0x3e3d8b7b	0.18510239
122	0xbd05317d	-0.0325179
123	0xbf22e762	-0.6363431
124	0x3f400541	0.75008017
125	0xbfacf68a	-1.3512738
126	0x3f22eea5	0.6364539
127	0xc0047608	-2.069704
128	0x3fe47b17	1.7850064
129	0x3f035db9	0.51314884
130	0xbe72cc3b	-0.2371072
131	0x3fd18e05	1.6371466
132	0x3ffe4708	1.9865427
133	0x3f0ef98e	0.5584954
134	0x3f96dd97	1.1786374
135	0x3fa21457	1.2662457
136	0x3ffda202	1.9815066
137	0xbefbf3e9	-0.49209526
138	0xbd438a67	-0.047739413
139	0xbf7b6414	-0.9819958
140	0x3e8ed3c0	0.27895927
141	0x3e30ccb2	0.17265585
142	0x3efa8841	0.48932078
143	0xbfd4de75	-1.6630388
144	0xbf3159b5	-0.6927751
145	0xbe856883	-0.260563
146	0x3f2519dd	0.6449259
147	0xbe5b1ed4	-0.21398479
148	0x3f22c4b4	0.63581395
149	0xc084590c	-4.13587
150	0x406e30d8	3.7217312
151	0xbf63b32a	-0.8894526
152	0xbe700d8d	-0.23442669
153	0xbff1a846	-1.8879478
154	0x3d6c0f50	0.05763179
155	0x3f3aa6e2	0.7291089
156	0xc0012cb0	-2.0183525
157	0xbfde5c22	-1.7371867
158	0xc084d98e	-4.151557
159	0x3fa380b3	1.2773651
160	0xc03b724b	-2.928851
161	0xc0499d3c	-3.1502218
162	0xc07f11f8	-3.9854717
163	0x3e2a3d12	0.16624859
164	0xc0357592	-2.835301
165	0xbc344204	-0.0110020675
166	0xbfe00d24	-1.750401
167	0xc0073e04	-2.1131601
168	0xbe9ae2d2	-0.30251175
169	0x4090ab5e	4.520919
170	0xbf99cf52	-1.2016394
171	0x3f273f38	0.6533084
172	0x3f9d6af0	1.229826
173	0x4080f086	4.029361
174	0x401d2d94	2.4559069
175	0x401f4e2b	2.489146
176	0xbdba413e	-0.09094475
177	0x3f83f606	1.0309455
178	0xbee98689	-0.45610455
179	0xbeb9d10d	-0.36292306
180	0xc09f0ef6	-4.9705763
181	0xbf055ddd	-0.5209635
182	0xc053c2cb	-3.3087642
183	0x3ff33178	1.8999472
184	0x4003b95f	2.0581892
185	0x40484705	3.1293347
186	0xbfd43cd2	-1.6581061
187	0xbf45334b	-0.7703139
188	0x3f81c25e	1.0137441
189	0x409a492a	4.821431
190	0x3e84a60a	0.25907928
191	0xbfec35f6	-1.8453968
192	0x3f528a4e	0.82242286
193	0xc00ed232	-2.2315793
194	0x3f77e8c8	0.9683957
195	0xbf9b0923	-1.2112163

decoder.rnn1.weight_hh_l0 f4 [28, 7]
0	0xbf3824f8	-0.7193141
1	0x40718ca1	3.7742083
2	0x3f7ab675	0.9793466
3	0x405c697e	3.4439387
4	0xc012a952	-2.2915845
5	0xbdac356f	-0.08408629
6	0x3e8b9d65	0.2726852
7	0x3fe29bcb	1.7703794
8	0x3e498128	0.19678175
9	0x3f898f3f	1.074684
10	0xbfeafe8c	-1.8358932
11	0x3e74aa8a	0.2389318
12	0xbf5923e6	-0.848204
13	0xbeefc338	-0.46828628
14	0x3daa7f93	0.08325114
15	0x3f535b01	0.82560736
16	0xbe35868f	-0.17727111
17	0x3cdc11b5	0.026863912
18	0x3e09672d	0.13418265
19	0xbf79c9b3	-0.97573394
20	0x3ee9e899	0.4568527
21	0x3eba7956	0.36420697
22	0x3ed02565	0.4065353
23	0x3f1988ac	0.5997417
24	0x3fdc6f1a	1.7221406
25	0x3f0ac837	0.54211754
26	0xbf18e997	-0.5973143
27	0x3ff0e98a	1.882127
28	0xbf1e8622	-0.6192342
29	0xbf5bd967	-0.85878605
30	0x401d72b6	2.4601264
31	0x3fa7e2a3	1.3116039
32	0x3fd507a4	1.6642957
33	0xbfa197a8	-1.2624407
34	0xbf3840a9	-0.71973664
35	0x3fb76f2a	1.43308
36	0x3f697efd	0.91209394
37	0xc0b18117	-5.547008
38	0xbfce702d	-1.6127983
39	0xc06c2f9b	-3.6904056
40	0x4017ca53	2.371724
41	0xbf8ad63b	-1.0846628
42	0xbef41211	-0.47670034
43	0xbe96195f	-0.29316232
44	0x3f35d03b	0.7102086
45	0x3fa3d000	1.2797852
46	0x3faacaea	1.3343174
47	0xc01eec3d	-2.4831688
48	0x3ecfb4a9	0.4056752
49	0xbfdf0ba9	-1.7425433
50	0x3ded6e36	0.11593287
51	0xbde0a6f3	-0.10969343
52	0xbf235148	-0.637959
53	0x3e01ffc4	0.12695223
54	0xbf26c1d4	-0.6513951
55	0xbff140e9	-1.8847934
56	0x3ee99219	0.45619276
57	0xbdd0bd61	-0.10192371
58	0xbfef774c	-1.8708282
59	0x3f2c9997	0.6742186
60	0x3efaac8a	0.48959762
61	0x3f352b74	0.7076943
62	0x3fa7744c	1.3082366
63	0xbf90e906	-1.1321113
64	0x3f155ba0	0.58342934
65	0x3fb08699	1.3791076
66	0x3e81a58b	0.25321612
67	0xbedd02df	-0.43166253
68	0xbf4abf97	-0.7919859
69	0xbe7932eb	-0.2433583
70	0xbf1a99cb	-0.6039092
71	0xbf969923	-1.1765484
72	0xbec33f4a	-0.38134223
73	0xbe396a57	-0.18106972
74	0x3f79e7b1	0.9761916
75	0xbf828b7d	-1.0198818
76	0xbf84fa9c	-1.038898
77	0xbad44532	-0.0016194938
78	0x3f179492	0.59211075
79	0xbdb5be38	-0.08874172
80	0x3ed04484	0.40677273
81	0xbf7c3189	-0.98513085
82	0xbe6e92a5	-0.23298128
83	0xbd452159	-0.048127506
84	0x3f3c38a9	0.73523957
85	0x3ebf5b54	0.37374365
86	0xbe8b0693	-0.27153453
87	0xbfc9be65	-1.5761229
88	0x3fdc8cf4	1.7230515
89	0xbf66fa7d	-0.90225965
90	0x3fb1d693	1.3893608
91	0x3f3ff4a0	0.74982643
92	0xbe57aee1	-0.21062805
93	0x3fae87e9	1.3635226
94	0xbdf1f2e0	-0.11813903
95	0x3f21b057	0.631597
96	0xc014fd1b	-2.3279483
97	0xbfac6a84	-1.3470006
98	0xbf2a7392	-0.66582596
99	0x3da1425d	0.07873986
100	0xbea16cf2	-0.3152843
101	0x3fa364dd	1.2765156
102	0x3f082134	0.53175664
103	0x3f752d8e	0.95772636
104	0x3f835909	1.0261546
105	0x3f54045f	0.8281917
106	0xc001b40f	-2.026615
107	0xbf9ef56a	-1.2418644
108	0xbf42fc64	-0.7616637
109	0x3fd32b66	1.6497619
110	0xbecd298b	-0.40070757
111	0x3c851368	0.016244605
112	0x3f7b74cf	0.9822511
113	0x3fe51753	1.7897743
114	0xbff61bb2	-1.9227202
115	0x3e84d9c5	0.25947395
116	0xbfad07a4	-1.3517957
117	0x3f8b8ba3	1.0901989
118	0x3ecf3fb9	0.40478304
119	0x3fc4b2c9	1.5367061
120	0x3fcf062d	1.617376
121	0xbeb149a1	-0.34626487
122	0xc000d5db	-2.0130527
123	0xbf980afb	-1.1878351
124	0xbea998a5	-0.3312427
125	0xbf693a42	-0.9110452
126	0xbe0a8f89	-0.13531317
127	0x3f9c3ed3	1.2206672
128	0xbfde90a5	-1.7387892
129	0xbfce5404	-1.611939
130	0xbf3309c5	-0.6993678
131	0x3f864745	1.04905
132	0xbe02ae4f	-0.12761806
133	0xc012f4ec	-2.2961988
134	0xc05a3ea8	-3.4100742
135	0x40344986	2.8169875
136	0x3ff54b11	1.9163533
137	0x407ec1f5	3.9805882
138	0xc00a100d	-2.1572297
139	0x3fe566cc	1.7921996
140	0xbfc0903d	-1.5044018
141	0xc05ca2a9	-3.447428
142	0x3fe6ab1f	1.8020972
143	0x3f5d0365	0.86333305
144	0x402b5368	2.6769657
145	0xbf8c4aa3	-1.0960277
146	0xbfc9b609	-1.5758678
147	0xbef83306	-0.48476428
148	0x40545df6	3.318235
149	0xc0346041	-2.8183749
150	0x4062b4d1	3.5422862
151	0xbf9b3593	-1.2125725
152	0x3f073d46	0.5282787
153	0x3e2c05f5	0.16799147
154	0xc011786d	-2.2729752
155	0xbfa6b9bb	-1.302543
156	0x3fae623f	1.3623732
157	0x3e731c42	0.23741248
158	0x3ff1b4c5	1.8883291
159	0xbfc47f90	-1.5351429
160	0xbf83e952	-1.0305579
161	0x3f4e9258	0.8069205
162	0x3fe59a2b	1.7937673
163	0xbe42ce40	-0.1902399
164	0xc07568d4	-3.8345232
165	0xbf4d0bdd	-0.80096227
166	0x3fe6be20	1.8026772
167	0xc0a60845	-5.1885095
168	0x3eca41e6	0.39503402
169	0xbf91c2fe	-1.1387632
170	0xc03a65f0	-2.9124718
171	0x3e9562ab	0.2917684
172	0x40437436	3.053968
173	0x3f04ce34	0.5187714
174	0xbe7307c1	-0.23733427
175	0x40d7fcf2	6.749627
176	0x40199a49	2.4000418
177	0xbf3ebfbd	-0.7451132
178	0xbfc9e760	-1.5773735
179	0xc0887a17	-4.2649035
180	0x40171b09	2.361025
181	0x3e914b85	0.2837793
182	0xbe9458cf	-0.28974006
183	0xbfd71d1d	-1.680576
184	0xbf1aa5d5	-0.6040929
185	0x3ed27905	0.41107956
186	0x3ee78d85	0.45225158
187	0xbf197a1e	-0.5995196
188	0x3f38b0ca	0.7214476
189	0xbf0b3719	-0.5438095
190	0xbfbcf09d	-1.4760929
191	0x3fee74d0	1.8629398
192	0x3f717783	0.94322985
193	0x3ec0b971	0.3764148
194	0xbfef6651	-1.87031
195	0x3ed7c294	0.4214064

decoder.rnn1.bias_ih_l0 f4 [28]
0	0x3e9a4437	0.3013017
1	0x3e89606f	0.26831385
2	0x3fee370e	1.8610551
3	0x3e872880	0.26398087
4	0x3f34cdea	0.706267
5	0xbe86440c	-0.2622379
6	0x3d02e02b	0.031952064
7	0xbec7231d	-0.38893977
8	0xbe8ddcf0	-0.27707624
9	0x3d6809b3	0.056649875
10	0x3f5f26c2	0.87168515
11	0xbe855fc5	-0.2604963
12	0xbeec0a58	-0.46101642
13	0xbe02ed42	-0.12785819
14	0xbe31cf6f	-0.17364286
15	0x3ee5d297	0.4488723
16	0xbf321b1e	-0.6957263
17	0xbeedbd24	-0.46433365
18	0x3e3e8bb5	0.18607982
19	0x3b61e5ab	0.0034469168
20	0x3f32732f	0.69707006
21	0x401927f3	2.3930633
22	0x3eb51655	0.353686
23	0x3fedc730	1.8576412
24	0x3f9ef1c3	1.241753
25	0xbf72e1ee	-0.9487599
26	0x3f64c2cf	0.89359754
27	0x3f27df44	0.6557505

decoder.rnn1.bias_hh_l0 f4 [28]
0	0x3f179d40	0.5922432
1	0xbe18f094	-0.14935523
2	0x3fe5646d	1.7921273
3	0x3eca71b2	0.39539868
4	0x3f3d5126	0.7395195
5	0x3ddaac58	0.10677403
6	0xbeafdb3b	-0.34346947
7	0x3e195d67	0.14977036
8	0xbefcd730	-0.49382925
9	0x3ed7ad08	0.421242
10	0x3f05432b	0.52055615
11	0xbddf2c71	-0.108971484
12	0xbf225474	-0.63410115
13	0x3e1a2677	0.15053736
14	0x3ee2ce99	0.44298247
15	0x3ea7a085	0.32739654
16	0xbf84d94e	-1.0378816
17	0xbe94b3f8	-0.29043555
18	0x3ea1ce84	0.3160287
19	0xbeac4a85	-0.33650604
20	0x3d5b17de	0.05348956
21	0x402c6929	2.6939185
22	0x3e506636	0.2035149
23	0x3fec981d	1.8483921
24	0x3f53480c	0.8253181
25	0xbf98ab5f	-1.1927298
26	0x3f176901	0.591446
27	0x3ed402dc	0.41408432

decoder.rnn2.weight_ih_l0 f4 [56, 7]
0	0x407466d1	3.8187754
1	0x40d435a5	6.6315484
2	0xc083b2c3	-4.1155715
3	0xbfd74f07	-1.6820992
4	0xc0b7b14d	-5.740393
5	0xbfb11fe1	-1.3837854
6	0xbfc01a4d	-1.5008026
7	0x3f9185f8	1.1369009
8	0x401e4f87	2.473604
9	0xbfcb8d2c	-1.5902457
10	0xc0bbf6c0	-5.873871
11	0xc096805b	-4.7031684
12	0x3e593962	0.21213296
13	0x3fffc50f	1.9982013
14	0x40b29490	5.580635
15	0x409ca35f	4.8949428
16	0xbff0c6a4	-1.881062
17	0xc067ca2b	-3.6217144
18	0xc0668fbf	-3.6025236
19	0x3d824bef	0.063621394
20	0xc0279994	-2.6187487
21	0x3fa974c7	1.3238763
22	0x40659f8a	3.5878625
23	0xc0cf1c69	-6.472218
24	0xc06a33ba	-3.6594071
25	0xc0dd7588	-6.920597
26	0x3fe478e9	1.7849399
27	0xbca5c3b6	-0.020234924
28	0xbff2e698	-1.8976622
29	0x41104174	9.01598
30	0xc117f6b3	-9.497729
31	0x400f07ae	2.2348437
32	0xc01b749b	-2.428992
33	0x3ef6d7e6	0.48211592
34	0x401e5b97	2.4743402
35	0xbee9cf5d	-0.45666018
36	0x3f641e8b	0.89109105
37	0xc08110a6	-4.0332823
38	0xc0855970	-4.1671677
39	0xbfe48dfe	-1.7855833
40	0x3fb98aad	1.4495445
41	0xbfd4fe6c	-1.6640143
42	0x3f9328f1	1.1496869
43	0x40a7efce	5.248023
44	0xc091c54a	-4.555333
45	0xc02b6b3b	-2.6784198
46	0xc07d338c	-3.9562712
47	0x3f803e6b	1.0019048
48	0xbd7e7b0c	-0.062129065
49	0x3ef6105b	0.48059353
50	0x4008002f	2.1250112
51	0xbfd2e3fd	-1.6475827
52	0xbe0bd4cb	-0.13655393
53	0xbfb0a528	-1.3800402
54	0x3f87a512	1.059725
55	0xc0409f49	-3.009722
56	0x40a9e488	5.309147
57	0x4092c9ad	4.5871186
58	0xc02d24ca	-2.7053704
59	0xc0132b03	-2.2995002
60	0xc08ec442	-4.4614573
61	0xbce8fd3e	-0.028441068
62	0xbfe744b0	-1.8067837
63	0x3ec94df0	0.39317274
64	0x4063faa8	3.5621738
65	0xc08ac2b8	-4.3362694
66	0xc0579eca	-3.3690667
67	0xbfe4bcab	-1.7870077
68	0x3e030d7c	0.12798113
69	0x3fcdf5a2	1.6090586
70	0x4017f265	2.3741696
71	0x40c3f498	6.1236076
72	0xc0a9373b	-5.287992
73	0xbf6a29e3	-0.91470164
74	0xc0e56aa7	-7.169269
75	0xbd0ceb5c	-0.034404144
76	0xbf08a868	-0.5338197
77	0x3f33ded2	0.7026187
78	0x40487b7b	3.1325366
79	0xbe5da3a6	-0.21644458
80	0xbf978e9c	-1.1840396
81	0xc0b9cd61	-5.8063207
82	0x3f049ae3	0.5179884
83	0xc09f1d9a	-4.9723635
84	0x3f1c684c	0.61096644
85	0x3fd76438	1.6827459
86	0xc080fb11	-4.0306478
87	0xc0d27cb5	-6.577723
88	0xc0b2a8c6	-5.583102
89	0xbf09fb4d	-0.5389908
90	0x3eac589c	0.33661354
91	0x3fc65778	1.5495443
92	0x403cdcd8	2.9509792
93	0xc0cb71cc	-6.357641
94	0xc07e20a7	-3.970743
95	0xc05fad9a	-3.4949708
96	0x3fdef334	1.741797
97	0x3f132501	0.5747834
98	0xc001beab	-2.0272624
99	0xbe3bfc33	-0.18357925
100	0xbf553e18	-0.8329787
101	0xc0633618	-3.5501766
102	0x40327291	2.7882426
103	0x3fd7f370	1.6871166
104	0x3fb657e9	1.4245578
105	0xc02e8a66	-2.7271972
106	0xc0304e20	-2.7547684
107	0x409d7800	4.9208984
108	0x3ffd685e	1.9797475
109	0x40302010	2.751957
110	0x4025be35	2.5897343
111	0x3f2bb030	0.67065716
112	0xbe82f430	-0.25576925
113	0xbf790caf	-0.9728498
114	0xc01124c6	-2.2678695
115	0xc0029ac1	-2.0406954
116	0xc06aecc3	-3.6707008
117	0x3f2281f3	0.63479537
118	0xbf4f1a4c	-0.808995
119	0xbfc6507d	-1.5493313
120	0x3f35c899	0.7100921
121	0x3f0c794b	0.5487258
122	0xbfa02a7a	-1.2512963
123	0xbecc3cf7	-0.39890262
124	0x3ee61d14	0.4494406
125	0x400a17e1	2.1577075
126	0x3feb1308	1.8365183
127	0x4087bb1f	4.241592
128	0xbfc67245	-1.5503622
129	0x407a0d3f	3.9070585
130	0xbf7f133e	-0.99638736
131	0x3ec02baa	0.37533313
132	0x3fd1f0fa	1.6401665
133	0xc0dafc35	-6.843287
134	0xc04f3c70	-3.2380638
135	0x3f56c80d	0.83899003
136	0xc0093774	-2.1440096
137	0x4004e2a0	2.076332
138	0x40580a2d	3.375621
139	0x3fe475c0	1.7848434
140	0xbf0caf24	-0.54954743
141	0x4024b187	2.5733354
142	0xbef7b34e	-0.48378986
143	0x40383697	2.878332
144	0x3e23e82c	0.16006535
145	0x400d7f85	2.2109082
146	0xbe96378d	-0.29339257
147	0x4087bec8	4.2420387
148	0xbf183333	-0.59453124
149	0x405c9791	3.4467509
150	0xc047d0bb	-3.122115
151	0xbf94f65e	-1.1637685
152	0x400d00dd	2.2031777
153	0xc06ad907	-3.6694963
154	0x3fac66d6	1.3468883
155	0x406e382e	3.722179
156	0x3f5f1b54	0.87151074
157	0x3e29a331	0.16566159
158	0xc0f05445	-7.510287
159	0xbe3d6b2c	-0.18497914
160	0xbe9a7184	-0.3016473
161	0x402b303b	2.6748188
162	0x40b341c8	5.60178
163	0x4015207c	2.3301077
164	0x3fd76731	1.6828367
165	0xc0b24a41	-5.571564
166	0x3f1e851d	0.61921865
167	0xbffbe02a	-1.9677784
168	0x3f80e264	1.0069089
169	0x3efb8435	0.49124303
170	0x3f4ef36d	0.8084019
171	0x3de3b51c	0.11118528
172	0x3fb57c74	1.4178605
173	0x3fe9030b	1.8204054
174	0xbf1b3e8d	-0.6064232
175	0x408fb03d	4.4902635
176	0x3f436d59	0.76338726
177	0x3f5f451e	0.8721484
178	0xc046ed79	-3.1082442
179	0x3f1077e2	0.56432927
180	0xc038be63	-2.8866203
181	0x3f1c8ea5	0.6115516
182	0x3ff6a6a0	1.92696
183	0xc073e34a	-3.8107476
184	0x400248e2	2.0356984
185	0xc04bb8e4	-3.1831598
186	0x40ab99a1	5.3625035
187	0x3f97d511	1.1861898
188	0x4066c62b	3.6058452
189	0xbed99da8	-0.42503095
190	0xbf0fe91b	-0.56215066
191	0x3fbbbb7e	1.4666593
192	0xbf925f32	-1.1435301
193	0xc09e8d45	-4.954745
194	0xbdac25d9	-0.08405656
195	0xbf2e8060	-0.68164635
196	0xbf55bf66	-0.83495176
197	0xbf633e77	-0.8876719
198	0x3f87fd60	1.0624199
199	0xbf898312	-1.0743124
200	0x3ded6e9c	0.11593363
201	0x3e84c428	0.25930905
202	0x3fde5d99	1.7372314
203	0x4043c3df	3.05883
204	0xbfab2047	-1.3369225
205	0x4059c3b2	3.4025693
206	0xc02f53dd	-2.7394936
207	0x3efd5087	0.494755
208	0x4056fe5c	3.3592749
209	0xc077c645	-3.8714764
210	0xbf945fd5	-1.1591746
211	0x3fa189d1	1.2620183
212	0x3ec5161b	0.38493428
213	0xbfa9272e	-1.3215082
214	0xc084c5c0	-4.1491394
215	0xbdcb568b	-0.09928616
216	0x3e33e686	0.17568406
217	0x40247053	2.5693557
218	0xbf810ed0	-1.0082645
219	0x3f6e0022	0.9296895
220	0xc0112ef0	-2.2684898
221	0xbe523624	-0.20528466
222	0xc00bcde5	-2.1844418
223	0xbfbc8437	-1.4727849
224	0x40203513	2.5032394
225	0x4079b269	3.9015143
226	0xc01c5be1	-2.4431078
227	0x406c4dfa	3.6922593
228	0xbf599286	-0.849892
229	0x401fecb7	2.498823
230	0xc0d0e3c1	-6.527802
231	0xc033c045	-2.8086102
232	0x3f28d6ae	0.65952575
233	0xbf73a60e	-0.95175254
234	0x3f21d262	0.63211644
235	0x3f4846ea	0.78233206
236	0xbf52fc26	-0.82416
237	0x40041efe	2.0643916
238	0xbf36d13c	-0.71413016
239	0xbfb6b253	-1.427317
240	0xbed498f8	-0.41522956
241	0xbf902723	-1.1261944
242	0x3e27fbee	0.16404697
243	0xc074348e	-3.8157077
244	0x4040c717	3.0121515
245	0xc04ac4e7	-3.168268
246	0x3ec3b662	0.38225085
247	0xc05ba39e	-3.4318614
248	0x408be77a	4.3720064
249	0x3f9973be	1.1988447
250	0xbf7a60d8	-0.9780402
251	0x3ec9c3d6	0.39407223
252	0xbf98a744	-1.1926045
253	0x405a461a	3.4105287
254	0xc013e599	-2.3108885
255	0x3fbd626a	1.4795659
